…
2023-03-31 15:14:37.305395: I tensorflow/core/platform/cpu_feature_guard.cc:193] This TensorFlow binary is optimized with oneAPI Deep Neural Network Library (oneDNN) to use the following CPU instructions in performance-critical operations:  AVX AVX2
To enable them in other operations, rebuild TensorFlow with the appropriate compiler flags.
Model: "model"
_________________________________________________________________
 Layer (type)                Output Shape              Param #   
=================================================================
 input_1 (InputLayer)        [(None, 200, 200, 3)]     0         
                                                                 
 conv2d (Conv2D)             (None, 200, 200, 16)      448       
                                                                 
 conv2d_1 (Conv2D)           (None, 200, 200, 16)      2320      
                                                                 
 max_pooling2d (MaxPooling2D  (None, 100, 100, 16)     0         
 )                                                               
                                                                 
 separable_conv2d (Separable  (None, 100, 100, 32)     688       
 Conv2D)                                                         
                                                                 
 separable_conv2d_1 (Separab  (None, 100, 100, 32)     1344      
 leConv2D)                                                       
                                                                 
 batch_normalization (BatchN  (None, 100, 100, 32)     128       
 ormalization)                                                   
                                                                 
 max_pooling2d_1 (MaxPooling  (None, 50, 50, 32)       0         
 2D)                                                             
                                                                 
 dropout (Dropout)           (None, 50, 50, 32)        0         
                                                                 
 flatten (Flatten)           (None, 80000)             0         
                                                                 
 dense (Dense)               (None, 128)               10240128  
                                                                 
 dropout_1 (Dropout)         (None, 128)               0         
                                                                 
 dense_1 (Dense)             (None, 64)                8256      
                                                                 
 dropout_2 (Dropout)         (None, 64)                0         
                                                                 
 dense_2 (Dense)             (None, 1)                 65        
                                                                 
=================================================================
Total params: 10,253,377
Trainable params: 10,253,313
Non-trainable params: 64
_________________________________________________________________
Epoch 1/15
81/81 [==============================] - 479s 6s/step - loss: 0.5076 - accuracy: 0.7686 - val_loss: 0.6491 - val_accuracy: 0.6215 - lr: 0.0100
…
